…
Loading model from: /home/tanzl/miniconda3/envs/thor/lib/python3.8/site-packages/lpips/weights/v0.1/squeeze.pth
****** DIFFUSION: Using DDPM Scheduler ******
****** DIFFUSION: Using DDPM Scheduler ******
BrainLoader
INFO: Early stopping delta 1e-08
Input size of summery is: (1, 1, 128, 128)
====================================================================================================
Layer (type:depth-idx)                             Output Shape              Param #
====================================================================================================
DDPM                                               [1, 1, 128, 128]          724,736
├─DiffusionModelUNet: 1-1                          [1, 1, 128, 128]          --
│    └─Sequential: 2-1                             [1, 512]                  --
│    │    └─Linear: 3-1                            [1, 512]                  66,048
│    │    └─SiLU: 3-2                              [1, 512]                  --
│    │    └─Linear: 3-3                            [1, 512]                  262,656
│    └─Convolution: 2-2                            [1, 128, 128, 128]        --
│    │    └─Conv2d: 3-4                            [1, 128, 128, 128]        1,280
│    └─ModuleList: 2-3                             --                        --
│    │    └─DownBlock: 3-5                         [1, 128, 64, 64]          508,928
│    │    └─AttnDownBlock: 3-6                     [1, 256, 32, 32]          1,904,128
│    │    └─AttnDownBlock: 3-7                     [1, 256, 32, 32]          1,576,192
│    └─AttnMidBlock: 2-4                           [1, 256, 32, 32]          --
│    │    └─ResnetBlock: 3-8                       [1, 256, 32, 32]          1,312,512
│    │    └─AttentionBlock: 3-9                    [1, 256, 32, 32]          263,680
│    │    └─ResnetBlock: 3-10                      [1, 256, 32, 32]          1,312,512
│    └─ModuleList: 2-5                             --                        --
│    │    └─AttnUpBlock: 3-11                      [1, 256, 64, 64]          5,185,792
│    │    └─AttnUpBlock: 3-12                      [1, 256, 128, 128]        4,857,856
│    │    └─UpBlock: 3-13                          [1, 128, 128, 128]        1,248,000
│    └─Sequential: 2-6                             [1, 1, 128, 128]          --
│    │    └─GroupNorm: 3-14                        [1, 128, 128, 128]        256
│    │    └─SiLU: 3-15                             [1, 128, 128, 128]        --
│    │    └─Convolution: 3-16                      [1, 1, 128, 128]          1,153
====================================================================================================
Total params: 19,225,729
Trainable params: 18,503,233
Non-trainable params: 722,496
Total mult-adds (G): 61.95
====================================================================================================
Input size (MB): 0.07
Forward/backward pass size (MB): 685.93
Params size (MB): 72.16
Estimated Total Size (MB): 758.15
…
